model.pth (torch, 1676 bytes, 2 tensors)

weight f4 [12, 5]
0.344476 -0.26054585 -0.033815756 -0.15411107 -0.27575833 0.3233452 -0.17181033 0.033999417
-0.4009742 0.34825864 -0.23667037 -0.40681103 -0.4276046 0.22362967 0.23841132 -0.03347424
0.23128521 0.09133686 0.4345288 0.35540769 -0.3005371 -0.4043431 -0.21076015 0.43153617
-0.010503693 -0.44695327 -0.28930628 -0.42959332 0.11273577 -0.109028935 -0.19164203 -0.4285133
0.04198673 -0.31613386 -0.082549766 -0.08865649 0.22585933 0.2757452 0.07593561 -0.12073641
0.25100374 -0.41307065 0.31647387 -0.1641751 0.4084044 -0.07155587 0.064483866 -0.28646022
0.37266222 -0.31152162 0.42152733 0.3887039 0.11449421 -0.37066382 -0.05894656 -0.2436889
-0.30037478 0.24001756 0.24020128 0.056082267
00000000: 295f b03e 4466 85be 6482 0abd 4bcf 1dbe
00000010: 3230 8dbe 818d a53e 0cef 2fbe f942 0b3d
00000020: 7e4c cdbe f54e b23e b859 72be 8949 d0be
00000030: fdee dabe 2dff 643e 1922 743e 491c 09bd
00000040: 08d6 6c3e d20e bb3d 8f7a de3e fff7 b53e
00000050: 00e0 99be 0f06 cfbe 82d1 57be 4ff2 dc3e
00000060: ae17 2cbc 0fd7 e4be f41f 94be a8f3 dbbe
00000070: 03e2 e63d 904a dfbd cf3d 44be 1866 dbbe
00000080: 47fa 2b3d 4cdc a1be da0f a9bd 8991 b5bd
00000090: ab47 673e 7a2e 8d3e 2184 9b3d a744 f7bd
000000a0: 9083 803e ff7d d3be dd08 a23e 841d 28be
000000b0: 621a d13e e28b 92bd 1e10 843d eaaa 92be
000000c0: 95cd be3e c37f 9fbe 6ed2 d73e 3304 c73e
000000d0: f17b ea3d a6c7 bdbe f371 71bd 9589 79be
000000e0: b9ca 99be 2ac7 753e 53f7 753e 85b6 653d

bias f4 [12]
-0.38624495 0.28077328 -0.13254444 -0.2651667 0.30548713 -0.4464095 -0.1609591 -0.25299206
-0.38527265 0.44021687 0.22850403 0.4171089
00000000: e6c1 c5be 84c1 8f3e bbb9 07be eec3 87be
00000010: cf68 9c3e c98f e4be 76d2 24be 2d88 81be
00000020: 7542 c5be 1b64 e13e f6fc 693e 4c8f d53e
